<net version="2" batch="1" name="resnet-50">
  <layers>
    <layer precision="FP16" id="1" type="Input" name="data">
      <output>
        <port id="1">
          <dim>1</dim>
          <dim>3</dim>
          <dim>300</dim>
          <dim>300</dim>
        </port>
      </output>
    </layer>
    <layer precision="FP16" id="2" type="ScaleShift" name="ScaleShift_bn_data">
      <input>
        <port id="3">
          <dim>1</dim>
          <dim>3</dim>
          <dim>300</dim>
          <dim>300</dim>
        </port>
      </input>
      <output>
        <port id="2">
          <dim>1</dim>
          <dim>3</dim>
          <dim>300</dim>
          <dim>300</dim>
        </port>
      </output>
      <weights size="6" offset="0"/>
      <biases size="6" offset="6"/>
    </layer>
    <layer precision="FP16" id="3" type="Convolution" name="Convolution_conv0">
      <convolution_data dilation-x="1" kernel-y="7" stride-x="2" output="64" pad-y="3" stride-y="2" dilation-y="1" pad-x="3" group="1" kernel-x="7"/>
      <input>
        <port id="5">
          <dim>1</dim>
          <dim>3</dim>
          <dim>300</dim>
          <dim>300</dim>
        </port>
      </input>
      <output>
        <port id="4">
          <dim>1</dim>
          <dim>64</dim>
          <dim>150</dim>
          <dim>150</dim>
        </port>
      </output>
      <weights size="18816" offset="12"/>
      <biases size="128" offset="18828"/>
    </layer>
    <layer precision="FP16" id="4" type="ReLU" name="ReLU_relu0">
      <input>
        <port id="7">
          <dim>1</dim>
          <dim>64</dim>
          <dim>150</dim>
          <dim>150</dim>
        </port>
      </input>
      <output>
        <port id="6">
          <dim>1</dim>
          <dim>64</dim>
          <dim>150</dim>
          <dim>150</dim>
        </port>
      </output>
    </layer>
    <layer precision="FP16" id="5" type="Pooling" name="Pooling_pooling0">
      <pooling_data pool-method="max" kernel-y="3" stride-x="2" pad-y="1" stride-y="2" rounding-type="ceil" kernel-x="3" pad-x="1"/>
      <input>
        <port id="9">
          <dim>1</dim>
          <dim>64</dim>
          <dim>150</dim>
          <dim>150</dim>
        </port>
      </input>
      <output>
        <port id="8">
          <dim>1</dim>
          <dim>64</dim>
          <dim>75</dim>
          <dim>75</dim>
        </port>
      </output>
    </layer>
    <layer precision="FP16" id="6" type="ScaleShift" name="ScaleShift_stage1_unit1_bn1">
      <input>
        <port id="11">
          <dim>1</dim>
          <dim>64</dim>
          <dim>75</dim>
          <dim>75</dim>
        </port>
      </input>
      <output>
        <port id="10">
          <dim>1</dim>
          <dim>64</dim>
          <dim>75</dim>
          <dim>75</dim>
        </port>
      </output>
      <weights size="128" offset="18956"/>
      <biases size="128" offset="19084"/>
    </layer>
    <layer precision="FP16" id="7" type="ReLU" name="ReLU_stage1_unit1_relu1">
      <input>
        <port id="13">
          <dim>1</dim>
          <dim>64</dim>
          <dim>75</dim>
          <dim>75</dim>
        </port>
      </input>
      <output>
        <port id="12">
          <dim>1</dim>
          <dim>64</dim>
          <dim>75</dim>
          <dim>75</dim>
        </port>
      </output>
    </layer>
    <layer precision="FP16" id="8" type="Convolution" name="Convolution_stage1_unit1_conv1">
      <convolution_data dilation-x="1" kernel-y="1" stride-x="1" output="64" pad-y="0" stride-y="1" dilation-y="1" pad-x="0" group="1" kernel-x="1"/>
      <input>
        <port id="15">
          <dim>1</dim>
          <dim>64</dim>
          <dim>75</dim>
          <dim>75</dim>
        </port>
      </input>
      <output>
        <port id="14">
          <dim>1</dim>
          <dim>64</dim>
          <dim>75</dim>
          <dim>75</dim>
        </port>
      </output>
      <weights size="8192" offset="19212"/>
      <biases size="128" offset="27404"/>
    </layer>
    <layer precision="FP16" id="9" type="ReLU" name="ReLU_stage1_unit1_relu2">
      <input>
        <port id="17">
          <dim>1</dim>
          <dim>64</dim>
          <dim>75</dim>
          <dim>75</dim>
        </port>
      </input>
      <output>
        <port id="16">
          <dim>1</dim>
          <dim>64</dim>
          <dim>75</dim>
          <dim>75</dim>
        </port>
      </output>
    </layer>
    <layer precision="FP16" id="10" type="Convolution" name="Convolution_stage1_unit1_conv2">
      <convolution_data dilation-x="1" kernel-y="3" stride-x="1" output="64" pad-y="1" stride-y="1" dilation-y="1" pad-x="1" group="1" kernel-x="3"/>
      <input>
        <port id="19">
          <dim>1</dim>
          <dim>64</dim>
          <dim>75</dim>
          <dim>75</dim>
        </port>
      </input>
      <output>
        <port id="18">
          <dim>1</dim>
          <dim>64</dim>
          <dim>75</dim>
          <dim>75</dim>
        </port>
      </output>
      <weights size="73728" offset="27532"/>
      <biases size="128" offset="101260"/>
    </layer>
    <layer precision="FP16" id="11" type="ReLU" name="ReLU_stage1_unit1_relu3">
      <input>
        <port id="21">
          <dim>1</dim>
          <dim>64</dim>
          <dim>75</dim>
          <dim>75</dim>
        </port>
      </input>
      <output>
        <port id="20">
          <dim>1</dim>
          <dim>64</dim>
          <dim>75</dim>
          <dim>75</dim>
        </port>
      </output>
    </layer>
    <layer precision="FP16" id="12" type="Convolution" name="Convolution_stage1_unit1_conv3">
      <convolution_data dilation-x="1" kernel-y="1" stride-x="1" output="256" pad-y="0" stride-y="1" dilation-y="1" pad-x="0" group="1" kernel-x="1"/>
      <input>
        <port id="23">
          <dim>1</dim>
          <dim>64</dim>
          <dim>75</dim>
          <dim>75</dim>
        </port>
      </input>
      <output>
        <port id="22">
          <dim>1</dim>
          <dim>256</dim>
          <dim>75</dim>
          <dim>75</dim>
        </port>
      </output>
      <weights size="32768" offset="101388"/>
    </layer>
    <layer precision="FP16" id="13" type="Convolution" name="Convolution_stage1_unit1_sc">
      <convolution_data dilation-x="1" kernel-y="1" stride-x="1" output="256" pad-y="0" stride-y="1" dilation-y="1" pad-x="0" group="1" kernel-x="1"/>
      <input>
        <port id="25">
          <dim>1</dim>
          <dim>64</dim>
          <dim>75</dim>
          <dim>75</dim>
        </port>
      </input>
      <output>
        <port id="24">
          <dim>1</dim>
          <dim>256</dim>
          <dim>75</dim>
          <dim>75</dim>
        </port>
      </output>
      <weights size="32768" offset="134156"/>
    </layer>
    <layer precision="FP16" id="14" type="Eltwise" name="Eltwise__plus0">
      <elementwise_data operation="sum"/>
      <input>
        <port id="27">
          <dim>1</dim>
          <dim>256</dim>
          <dim>75</dim>
          <dim>75</dim>
        </port>
        <port id="28">
          <dim>1</dim>
          <dim>256</dim>
          <dim>75</dim>
          <dim>75</dim>
        </port>
      </input>
      <output>
        <port id="26">
          <dim>1</dim>
          <dim>256</dim>
          <dim>75</dim>
          <dim>75</dim>
        </port>
      </output>
    </layer>
    <layer precision="FP16" id="15" type="ScaleShift" name="ScaleShift_stage1_unit2_bn1">
      <input>
        <port id="30">
          <dim>1</dim>
          <dim>256</dim>
          <dim>75</dim>
          <dim>75</dim>
        </port>
      </input>
      <output>
        <port id="29">
          <dim>1</dim>
          <dim>256</dim>
          <dim>75</dim>
          <dim>75</dim>
        </port>
      </output>
      <weights size="512" offset="166924"/>
      <biases size="512" offset="167436"/>
    </layer>
    <layer precision="FP16" id="16" type="ReLU" name="ReLU_stage1_unit2_relu1">
      <input>
        <port id="32">
          <dim>1</dim>
          <dim>256</dim>
          <dim>75</dim>
          <dim>75</dim>
        </port>
      </input>
      <output>
        <port id="31">
          <dim>1</dim>
          <dim>256</dim>
          <dim>75</dim>
          <dim>75</dim>
        </port>
      </output>
    </layer>
    <layer precision="FP16" id="17" type="Convolution" name="Convolution_stage1_unit2_conv1">
      <convolution_data dilation-x="1" kernel-y="1" stride-x="1" output="64" pad-y="0" stride-y="1" dilation-y="1" pad-x="0" group="1" kernel-x="1"/>
      <input>
        <port id="34">
          <dim>1</dim>
          <dim>256</dim>
          <dim>75</dim>
          <dim>75</dim>
        </port>
      </input>
      <output>
        <port id="33">
          <dim>1</dim>
          <dim>64</dim>
          <dim>75</dim>
          <dim>75</dim>
        </port>
      </output>
      <weights size="32768" offset="167948"/>
      <biases size="128" offset="200716"/>
    </layer>
    <layer precision="FP16" id="18" type="ReLU" name="ReLU_stage1_unit2_relu2">
      <input>
        <port id="36">
          <dim>1</dim>
          <dim>64</dim>
          <dim>75</dim>
          <dim>75</dim>
        </port>
      </input>
      <output>
        <port id="35">
          <dim>1</dim>
          <dim>64</dim>
          <dim>75</dim>
          <dim>75</dim>
        </port>
      </output>
    </layer>
    <layer precision="FP16" id="19" type="Convolution" name="Convolution_stage1_unit2_conv2">
      <convolution_data dilation-x="1" kernel-y="3" stride-x="1" output="64" pad-y="1" stride-y="1" dilation-y="1" pad-x="1" group="1" kernel-x="3"/>
      <input>
        <port id="38">
          <dim>1</dim>
          <dim>64</dim>
          <dim>75</dim>
          <dim>75</dim>
        </port>
      </input>
      <output>
        <port id="37">
          <dim>1</dim>
          <dim>64</dim>
          <dim>75</dim>
          <dim>75</dim>
        </port>
      </output>
      <weights size="73728" offset="200844"/>
      <biases size="128" offset="274572"/>
    </layer>
    <layer precision="FP16" id="20" type="ReLU" name="ReLU_stage1_unit2_relu3">
      <input>
        <port id="40">
          <dim>1</dim>
          <dim>64</dim>
          <dim>75</dim>
          <dim>75</dim>
        </port>
      </input>
      <output>
        <port id="39">
          <dim>1</dim>
          <dim>64</dim>
          <dim>75</dim>
          <dim>75</dim>
        </port>
      </output>
    </layer>
    <layer precision="FP16" id="21" type="Convolution" name="Convolution_stage1_unit2_conv3">
      <convolution_data dilation-x="1" kernel-y="1" stride-x="1" output="256" pad-y="0" stride-y="1" dilation-y="1" pad-x="0" group="1" kernel-x="1"/>
      <input>
        <port id="42">
          <dim>1</dim>
          <dim>64</dim>
          <dim>75</dim>
          <dim>75</dim>
        </port>
      </input>
      <output>
        <port id="41">
          <dim>1</dim>
          <dim>256</dim>
          <dim>75</dim>
          <dim>75</dim>
        </port>
      </output>
      <weights size="32768" offset="274700"/>
    </layer>
    <layer precision="FP16" id="22" type="Eltwise" name="Eltwise__plus1">
      <elementwise_data operation="sum"/>
      <input>
        <port id="44">
          <dim>1</dim>
          <dim>256</dim>
          <dim>75</dim>
          <dim>75</dim>
        </port>
        <port id="45">
          <dim>1</dim>
          <dim>256</dim>
          <dim>75</dim>
          <dim>75</dim>
        </port>
      </input>
      <output>
        <port id="43">
          <dim>1</dim>
          <dim>256</dim>
          <dim>75</dim>
          <dim>75</dim>
        </port>
      </output>
    </layer>
    <layer precision="FP16" id="23" type="ScaleShift" name="ScaleShift_stage1_unit3_bn1">
      <input>
        <port id="47">
          <dim>1</dim>
          <dim>256</dim>
          <dim>75</dim>
          <dim>75</dim>
        </port>
      </input>
      <output>
        <port id="46">
          <dim>1</dim>
          <dim>256</dim>
          <dim>75</dim>
          <dim>75</dim>
        </port>
      </output>
      <weights size="512" offset="307468"/>
      <biases size="512" offset="307980"/>
    </layer>
    <layer precision="FP16" id="24" type="ReLU" name="ReLU_stage1_unit3_relu1">
      <input>
        <port id="49">
          <dim>1</dim>
          <dim>256</dim>
          <dim>75</dim>
          <dim>75</dim>
        </port>
      </input>
      <output>
        <port id="48">
          <dim>1</dim>
          <dim>256</dim>
          <dim>75</dim>
          <dim>75</dim>
        </port>
      </output>
    </layer>
    <layer precision="FP16" id="25" type="Convolution" name="Convolution_stage1_unit3_conv1">
      <convolution_data dilation-x="1" kernel-y="1" stride-x="1" output="64" pad-y="0" stride-y="1" dilation-y="1" pad-x="0" group="1" kernel-x="1"/>
      <input>
        <port id="51">
          <dim>1</dim>
          <dim>256</dim>
          <dim>75</dim>
          <dim>75</dim>
        </port>
      </input>
      <output>
        <port id="50">
          <dim>1</dim>
          <dim>64</dim>
          <dim>75</dim>
          <dim>75</dim>
        </port>
      </output>
      <weights size="32768" offset="308492"/>
      <biases size="128" offset="341260"/>
    </layer>
    <layer precision="FP16" id="26" type="ReLU" name="ReLU_stage1_unit3_relu2">
      <input>
        <port id="53">
          <dim>1</dim>
          <dim>64</dim>
          <dim>75</dim>
          <dim>75</dim>
        </port>
      </input>
      <output>
        <port id="52">
          <dim>1</dim>
          <dim>64</dim>
          <dim>75</dim>
          <dim>75</dim>
        </port>
      </output>
    </layer>
    <layer precision="FP16" id="27" type="Convolution" name="Convolution_stage1_unit3_conv2">
      <convolution_data dilation-x="1" kernel-y="3" stride-x="1" output="64" pad-y="1" stride-y="1" dilation-y="1" pad-x="1" group="1" kernel-x="3"/>
      <input>
        <port id="55">
          <dim>1</dim>
          <dim>64</dim>
          <dim>75</dim>
          <dim>75</dim>
        </port>
      </input>
      <output>
        <port id="54">
          <dim>1</dim>
          <dim>64</dim>
          <dim>75</dim>
          <dim>75</dim>
        </port>
      </output>
      <weights size="73728" offset="341388"/>
      <biases size="128" offset="415116"/>
    </layer>
    <layer precision="FP16" id="28" type="ReLU" name="ReLU_stage1_unit3_relu3">
      <input>
        <port id="57">
          <dim>1</dim>
          <dim>64</dim>
          <dim>75</dim>
          <dim>75</dim>
        </port>
      </input>
      <output>
        <port id="56">
          <dim>1</dim>
          <dim>64</dim>
          <dim>75</dim>
          <dim>75</dim>
        </port>
      </output>
    </layer>
    <layer precision="FP16" id="29" type="Convolution" name="Convolution_stage1_unit3_conv3">
      <convolution_data dilation-x="1" kernel-y="1" stride-x="1" output="256" pad-y="0" stride-y="1" dilation-y="1" pad-x="0" group="1" kernel-x="1"/>
      <input>
        <port id="59">
          <dim>1</dim>
          <dim>64</dim>
          <dim>75</dim>
          <dim>75</dim>
        </port>
      </input>
      <output>
        <port id="58">
          <dim>1</dim>
          <dim>256</dim>
          <dim>75</dim>
          <dim>75</dim>
        </port>
      </output>
      <weights size="32768" offset="415244"/>
    </layer>
    <layer precision="FP16" id="30" type="Eltwise" name="Eltwise__plus2">
      <elementwise_data operation="sum"/>
      <input>
        <port id="61">
          <dim>1</dim>
          <dim>256</dim>
          <dim>75</dim>
          <dim>75</dim>
        </port>
        <port id="62">
          <dim>1</dim>
          <dim>256</dim>
          <dim>75</dim>
          <dim>75</dim>
        </port>
      </input>
      <output>
        <port id="60">
          <dim>1</dim>
          <dim>256</dim>
          <dim>75</dim>
          <dim>75</dim>
        </port>
      </output>
    </layer>
    <layer precision="FP16" id="31" type="ScaleShift" name="ScaleShift_stage2_unit1_bn1">
      <input>
        <port id="64">
          <dim>1</dim>
          <dim>256</dim>
          <dim>75</dim>
          <dim>75</dim>
        </port>
      </input>
      <output>
        <port id="63">
          <dim>1</dim>
          <dim>256</dim>
          <dim>75</dim>
          <dim>75</dim>
        </port>
      </output>
      <weights size="512" offset="448012"/>
      <biases size="512" offset="448524"/>
    </layer>
    <layer precision="FP16" id="32" type="ReLU" name="ReLU_stage2_unit1_relu1">
      <input>
        <port id="66">
          <dim>1</dim>
          <dim>256</dim>
          <dim>75</dim>
          <dim>75</dim>
        </port>
      </input>
      <output>
        <port id="65">
          <dim>1</dim>
          <dim>256</dim>
          <dim>75</dim>
          <dim>75</dim>
        </port>
      </output>
    </layer>
    <layer precision="FP16" id="33" type="Convolution" name="Convolution_stage2_unit1_conv1">
      <convolution_data dilation-x="1" kernel-y="1" stride-x="1" output="128" pad-y="0" stride-y="1" dilation-y="1" pad-x="0" group="1" kernel-x="1"/>
      <input>
        <port id="68">
          <dim>1</dim>
          <dim>256</dim>
          <dim>75</dim>
          <dim>75</dim>
        </port>
      </input>
      <output>
        <port id="67">
          <dim>1</dim>
          <dim>128</dim>
          <dim>75</dim>
          <dim>75</dim>
        </port>
      </output>
      <weights size="65536" offset="449036"/>
      <biases size="256" offset="514572"/>
    </layer>
    <layer precision="FP16" id="34" type="ReLU" name="ReLU_stage2_unit1_relu2">
      <input>
        <port id="70">
          <dim>1</dim>
          <dim>128</dim>
          <dim>75</dim>
          <dim>75</dim>
        </port>
      </input>
      <output>
        <port id="69">
          <dim>1</dim>
          <dim>128</dim>
          <dim>75</dim>
          <dim>75</dim>
        </port>
      </output>
    </layer>
    <layer precision="FP16" id="35" type="Convolution" name="Convolution_stage2_unit1_conv2">
      <convolution_data dilation-x="1" kernel-y="3" stride-x="2" output="128" pad-y="1" stride-y="2" dilation-y="1" pad-x="1" group="1" kernel-x="3"/>
      <input>
        <port id="72">
          <dim>1</dim>
          <dim>128</dim>
          <dim>75</dim>
          <dim>75</dim>
        </port>
      </input>
      <output>
        <port id="71">
          <dim>1</dim>
          <dim>128</dim>
          <dim>38</dim>
          <dim>38</dim>
        </port>
      </output>
      <weights size="294912" offset="514828"/>
      <biases size="256" offset="809740"/>
    </layer>
    <layer precision="FP16" id="36" type="ReLU" name="ReLU_stage2_unit1_relu3">
      <input>
        <port id="74">
          <dim>1</dim>
          <dim>128</dim>
          <dim>38</dim>
          <dim>38</dim>
        </port>
      </input>
      <output>
        <port id="73">
          <dim>1</dim>
          <dim>128</dim>
          <dim>38</dim>
          <dim>38</dim>
        </port>
      </output>
    </layer>
    <layer precision="FP16" id="37" type="Convolution" name="Convolution_stage2_unit1_conv3">
      <convolution_data dilation-x="1" kernel-y="1" stride-x="1" output="512" pad-y="0" stride-y="1" dilation-y="1" pad-x="0" group="1" kernel-x="1"/>
      <input>
        <port id="76">
          <dim>1</dim>
          <dim>128</dim>
          <dim>38</dim>
          <dim>38</dim>
        </port>
      </input>
      <output>
        <port id="75">
          <dim>1</dim>
          <dim>512</dim>
          <dim>38</dim>
          <dim>38</dim>
        </port>
      </output>
      <weights size="131072" offset="809996"/>
    </layer>
    <layer precision="FP16" id="38" type="Convolution" name="Convolution_stage2_unit1_sc">
      <convolution_data dilation-x="1" kernel-y="1" stride-x="2" output="512" pad-y="0" stride-y="2" dilation-y="1" pad-x="0" group="1" kernel-x="1"/>
      <input>
        <port id="78">
          <dim>1</dim>
          <dim>256</dim>
          <dim>75</dim>
          <dim>75</dim>
        </port>
      </input>
      <output>
        <port id="77">
          <dim>1</dim>
          <dim>512</dim>
          <dim>38</dim>
          <dim>38</dim>
        </port>
      </output>
      <weights size="262144" offset="941068"/>
    </layer>
    <layer precision="FP16" id="39" type="Eltwise" name="Eltwise__plus3">
      <elementwise_data operation="sum"/>
      <input>
        <port id="80">
          <dim>1</dim>
          <dim>512</dim>
          <dim>38</dim>
          <dim>38</dim>
        </port>
        <port id="81">
          <dim>1</dim>
          <dim>512</dim>
          <dim>38</dim>
          <dim>38</dim>
        </port>
      </input>
      <output>
        <port id="79">
          <dim>1</dim>
          <dim>512</dim>
          <dim>38</dim>
          <dim>38</dim>
        </port>
      </output>
    </layer>
    <layer precision="FP16" id="40" type="ScaleShift" name="ScaleShift_stage2_unit2_bn1">
      <input>
        <port id="83">
          <dim>1</dim>
          <dim>512</dim>
          <dim>38</dim>
          <dim>38</dim>
        </port>
      </input>
      <output>
        <port id="82">
          <dim>1</dim>
          <dim>512</dim>
          <dim>38</dim>
          <dim>38</dim>
        </port>
      </output>
      <weights size="1024" offset="1203212"/>
      <biases size="1024" offset="1204236"/>
    </layer>
    <layer precision="FP16" id="41" type="ReLU" name="ReLU_stage2_unit2_relu1">
      <input>
        <port id="85">
          <dim>1</dim>
          <dim>512</dim>
          <dim>38</dim>
          <dim>38</dim>
        </port>
      </input>
      <output>
        <port id="84">
          <dim>1</dim>
          <dim>512</dim>
          <dim>38</dim>
          <dim>38</dim>
        </port>
      </output>
    </layer>
    <layer precision="FP16" id="42" type="Convolution" name="Convolution_stage2_unit2_conv1">
      <convolution_data dilation-x="1" kernel-y="1" stride-x="1" output="128" pad-y="0" stride-y="1" dilation-y="1" pad-x="0" group="1" kernel-x="1"/>
      <input>
        <port id="87">
          <dim>1</dim>
          <dim>512</dim>
          <dim>38</dim>
          <dim>38</dim>
        </port>
      </input>
      <output>
        <port id="86">
          <dim>1</dim>
          <dim>128</dim>
          <dim>38</dim>
          <dim>38</dim>
        </port>
      </output>
      <weights size="131072" offset="1205260"/>
      <biases size="256" offset="1336332"/>
    </layer>
    <layer precision="FP16" id="43" type="ReLU" name="ReLU_stage2_unit2_relu2">
      <input>
        <port id="89">
          <dim>1</dim>
          <dim>128</dim>
          <dim>38</dim>
          <dim>38</dim>
        </port>
      </input>
      <output>
        <port id="88">
          <dim>1</dim>
          <dim>128</dim>
          <dim>38</dim>
          <dim>38</dim>
        </port>
      </output>
    </layer>
    <layer precision="FP16" id="44" type="Convolution" name="Convolution_stage2_unit2_conv2">
      <convolution_data dilation-x="1" kernel-y="3" stride-x="1" output="128" pad-y="1" stride-y="1" dilation-y="1" pad-x="1" group="1" kernel-x="3"/>
      <input>
        <port id="91">
          <dim>1</dim>
          <dim>128</dim>
          <dim>38</dim>
          <dim>38</dim>
        </port>
      </input>
      <output>
        <port id="90">
          <dim>1</dim>
          <dim>128</dim>
          <dim>38</dim>
          <dim>38</dim>
        </port>
      </output>
      <weights size="294912" offset="1336588"/>
      <biases size="256" offset="1631500"/>
    </layer>
    <layer precision="FP16" id="45" type="ReLU" name="ReLU_stage2_unit2_relu3">
      <input>
        <port id="93">
          <dim>1</dim>
          <dim>128</dim>
          <dim>38</dim>
          <dim>38</dim>
        </port>
      </input>
      <output>
        <port id="92">
          <dim>1</dim>
          <dim>128</dim>
          <dim>38</dim>
          <dim>38</dim>
        </port>
      </output>
    </layer>
    <layer precision="FP16" id="46" type="Convolution" name="Convolution_stage2_unit2_conv3">
      <convolution_data dilation-x="1" kernel-y="1" stride-x="1" output="512" pad-y="0" stride-y="1" dilation-y="1" pad-x="0" group="1" kernel-x="1"/>
      <input>
        <port id="95">
          <dim>1</dim>
          <dim>128</dim>
          <dim>38</dim>
          <dim>38</dim>
        </port>
      </input>
      <output>
        <port id="94">
          <dim>1</dim>
          <dim>512</dim>
          <dim>38</dim>
          <dim>38</dim>
        </port>
      </output>
      <weights size="131072" offset="1631756"/>
    </layer>
    <layer precision="FP16" id="47" type="Eltwise" name="Eltwise__plus4">
      <elementwise_data operation="sum"/>
      <input>
        <port id="97">
          <dim>1</dim>
          <dim>512</dim>
          <dim>38</dim>
          <dim>38</dim>
        </port>
        <port id="98">
          <dim>1</dim>
          <dim>512</dim>
          <dim>38</dim>
          <dim>38</dim>
        </port>
      </input>
      <output>
        <port id="96">
          <dim>1</dim>
          <dim>512</dim>
          <dim>38</dim>
          <dim>38</dim>
        </port>
      </output>
    </layer>
    <layer precision="FP16" id="48" type="ScaleShift" name="ScaleShift_stage2_unit3_bn1">
      <input>
        <port id="100">
          <dim>1</dim>
          <dim>512</dim>
          <dim>38</dim>
          <dim>38</dim>
        </port>
      </input>
      <output>
        <port id="99">
          <dim>1</dim>
          <dim>512</dim>
          <dim>38</dim>
          <dim>38</dim>
        </port>
      </output>
      <weights size="1024" offset="1762828"/>
      <biases size="1024" offset="1763852"/>
    </layer>
    <layer precision="FP16" id="49" type="ReLU" name="ReLU_stage2_unit3_relu1">
      <input>
        <port id="102">
          <dim>1</dim>
          <dim>512</dim>
          <dim>38</dim>
          <dim>38</dim>
        </port>
      </input>
      <output>
        <port id="101">
          <dim>1</dim>
          <dim>512</dim>
          <dim>38</dim>
          <dim>38</dim>
        </port>
      </output>
    </layer>
    <layer precision="FP16" id="50" type="Convolution" name="Convolution_stage2_unit3_conv1">
      <convolution_data dilation-x="1" kernel-y="1" stride-x="1" output="128" pad-y="0" stride-y="1" dilation-y="1" pad-x="0" group="1" kernel-x="1"/>
      <input>
        <port id="104">
          <dim>1</dim>
          <dim>512</dim>
          <dim>38</dim>
          <dim>38</dim>
        </port>
      </input>
      <output>
        <port id="103">
          <dim>1</dim>
          <dim>128</dim>
          <dim>38</dim>
          <dim>38</dim>
        </port>
      </output>
      <weights size="131072" offset="1764876"/>
      <biases size="256" offset="1895948"/>
    </layer>
    <layer precision="FP16" id="51" type="ReLU" name="ReLU_stage2_unit3_relu2">
      <input>
        <port id="106">
          <dim>1</dim>
          <dim>128</dim>
          <dim>38</dim>
          <dim>38</dim>
        </port>
      </input>
      <output>
        <port id="105">
          <dim>1</dim>
          <dim>128</dim>
          <dim>38</dim>
          <dim>38</dim>
        </port>
      </output>
    </layer>
    <layer precision="FP16" id="52" type="Convolution" name="Convolution_stage2_unit3_conv2">
      <convolution_data dilation-x="1" kernel-y="3" stride-x="1" output="128" pad-y="1" stride-y="1" dilation-y="1" pad-x="1" group="1" kernel-x="3"/>
      <input>
        <port id="108">
          <dim>1</dim>
          <dim>128</dim>
          <dim>38</dim>
          <dim>38</dim>
        </port>
      </input>
      <output>
        <port id="107">
          <dim>1</dim>
          <dim>128</dim>
          <dim>38</dim>
          <dim>38</dim>
        </port>
      </output>
      <weights size="294912" offset="1896204"/>
      <biases size="256" offset="2191116"/>
    </layer>
    <layer precision="FP16" id="53" type="ReLU" name="ReLU_stage2_unit3_relu3">
      <input>
        <port id="110">
          <dim>1</dim>
          <dim>128</dim>
          <dim>38</dim>
          <dim>38</dim>
        </port>
      </input>
      <output>
        <port id="109">
          <dim>1</dim>
          <dim>128</dim>
          <dim>38</dim>
          <dim>38</dim>
        </port>
      </output>
    </layer>
    <layer precision="FP16" id="54" type="Convolution" name="Convolution_stage2_unit3_conv3">
      <convolution_data dilation-x="1" kernel-y="1" stride-x="1" output="512" pad-y="0" stride-y="1" dilation-y="1" pad-x="0" group="1" kernel-x="1"/>
      <input>
        <port id="112">
          <dim>1</dim>
          <dim>128</dim>
          <dim>38</dim>
          <dim>38</dim>
        </port>
      </input>
      <output>
        <port id="111">
          <dim>1</dim>
          <dim>512</dim>
          <dim>38</dim>
          <dim>38</dim>
        </port>
      </output>
      <weights size="131072" offset="2191372"/>
    </layer>
    <layer precision="FP16" id="55" type="Eltwise" name="Eltwise__plus5">
      <elementwise_data operation="sum"/>
      <input>
        <port id="114">
          <dim>1</dim>
          <dim>512</dim>
          <dim>38</dim>
          <dim>38</dim>
        </port>
        <port id="115">
          <dim>1</dim>
          <dim>512</dim>
          <dim>38</dim>
          <dim>38</dim>
        </port>
      </input>
      <output>
        <port id="113">
          <dim>1</dim>
          <dim>512</dim>
          <dim>38</dim>
          <dim>38</dim>
        </port>
      </output>
    </layer>
    <layer precision="FP16" id="56" type="ScaleShift" name="ScaleShift_stage2_unit4_bn1">
      <input>
        <port id="117">
          <dim>1</dim>
          <dim>512</dim>
          <dim>38</dim>
          <dim>38</dim>
        </port>
      </input>
      <output>
        <port id="116">
          <dim>1</dim>
          <dim>512</dim>
          <dim>38</dim>
          <dim>38</dim>
        </port>
      </output>
      <weights size="1024" offset="2322444"/>
      <biases size="1024" offset="2323468"/>
    </layer>
    <layer precision="FP16" id="57" type="ReLU" name="ReLU_stage2_unit4_relu1">
      <input>
        <port id="119">
          <dim>1</dim>
          <dim>512</dim>
          <dim>38</dim>
          <dim>38</dim>
        </port>
      </input>
      <output>
        <port id="118">
          <dim>1</dim>
          <dim>512</dim>
          <dim>38</dim>
          <dim>38</dim>
        </port>
      </output>
    </layer>
    <layer precision="FP16" id="58" type="Convolution" name="Convolution_stage2_unit4_conv1">
      <convolution_data dilation-x="1" kernel-y="1" stride-x="1" output="128" pad-y="0" stride-y="1" dilation-y="1" pad-x="0" group="1" kernel-x="1"/>
      <input>
        <port id="121">
          <dim>1</dim>
          <dim>512</dim>
          <dim>38</dim>
          <dim>38</dim>
        </port>
      </input>
      <output>
        <port id="120">
          <dim>1</dim>
          <dim>128</dim>
          <dim>38</dim>
          <dim>38</dim>
        </port>
      </output>
      <weights size="131072" offset="2324492"/>
      <biases size="256" offset="2455564"/>
    </layer>
    <layer precision="FP16" id="59" type="ReLU" name="ReLU_stage2_unit4_relu2">
      <input>
        <port id="123">
          <dim>1</dim>
          <dim>128</dim>
          <dim>38</dim>
          <dim>38</dim>
        </port>
      </input>
      <output>
        <port id="122">
          <dim>1</dim>
          <dim>128</dim>
          <dim>38</dim>
          <dim>38</dim>
        </port>
      </output>
    </layer>
    <layer precision="FP16" id="60" type="Convolution" name="Convolution_stage2_unit4_conv2">
      <convolution_data dilation-x="1" kernel-y="3" stride-x="1" output="128" pad-y="1" stride-y="1" dilation-y="1" pad-x="1" group="1" kernel-x="3"/>
      <input>
        <port id="125">
          <dim>1</dim>
          <dim>128</dim>
          <dim>38</dim>
          <dim>38</dim>
        </port>
      </input>
      <output>
        <port id="124">
          <dim>1</dim>
          <dim>128</dim>
          <dim>38</dim>
          <dim>38</dim>
        </port>
      </output>
      <weights size="294912" offset="2455820"/>
      <biases size="256" offset="2750732"/>
    </layer>
    <layer precision="FP16" id="61" type="ReLU" name="ReLU_stage2_unit4_relu3">
      <input>
        <port id="127">
          <dim>1</dim>
          <dim>128</dim>
          <dim>38</dim>
          <dim>38</dim>
        </port>
      </input>
      <output>
        <port id="126">
          <dim>1</dim>
          <dim>128</dim>
          <dim>38</dim>
          <dim>38</dim>
        </port>
      </output>
    </layer>
    <layer precision="FP16" id="62" type="Convolution" name="Convolution_stage2_unit4_conv3">
      <convolution_data dilation-x="1" kernel-y="1" stride-x="1" output="512" pad-y="0" stride-y="1" dilation-y="1" pad-x="0" group="1" kernel-x="1"/>
      <input>
        <port id="129">
          <dim>1</dim>
          <dim>128</dim>
          <dim>38</dim>
          <dim>38</dim>
        </port>
      </input>
      <output>
        <port id="128">
          <dim>1</dim>
          <dim>512</dim>
          <dim>38</dim>
          <dim>38</dim>
        </port>
      </output>
      <weights size="131072" offset="2750988"/>
    </layer>
    <layer precision="FP16" id="63" type="Eltwise" name="Eltwise__plus6">
      <elementwise_data operation="sum"/>
      <input>
        <port id="131">
          <dim>1</dim>
          <dim>512</dim>
          <dim>38</dim>
          <dim>38</dim>
        </port>
        <port id="132">
          <dim>1</dim>
          <dim>512</dim>
          <dim>38</dim>
          <dim>38</dim>
        </port>
      </input>
      <output>
        <port id="130">
          <dim>1</dim>
          <dim>512</dim>
          <dim>38</dim>
          <dim>38</dim>
        </port>
      </output>
    </layer>
    <layer precision="FP16" id="64" type="ScaleShift" name="ScaleShift_stage3_unit1_bn1">
      <input>
        <port id="134">
          <dim>1</dim>
          <dim>512</dim>
          <dim>38</dim>
          <dim>38</dim>
        </port>
      </input>
      <output>
        <port id="133">
          <dim>1</dim>
          <dim>512</dim>
          <dim>38</dim>
          <dim>38</dim>
        </port>
      </output>
      <weights size="1024" offset="2882060"/>
      <biases size="1024" offset="2883084"/>
    </layer>
    <layer precision="FP16" id="65" type="ReLU" name="ReLU_stage3_unit1_relu1">
      <input>
        <port id="136">
          <dim>1</dim>
          <dim>512</dim>
          <dim>38</dim>
          <dim>38</dim>
        </port>
      </input>
      <output>
        <port id="135">
          <dim>1</dim>
          <dim>512</dim>
          <dim>38</dim>
          <dim>38</dim>
        </port>
      </output>
    </layer>
    <layer precision="FP16" id="66" type="Convolution" name="Convolution_stage3_unit1_conv1">
      <convolution_data dilation-x="1" kernel-y="1" stride-x="1" output="256" pad-y="0" stride-y="1" dilation-y="1" pad-x="0" group="1" kernel-x="1"/>
      <input>
        <port id="138">
          <dim>1</dim>
          <dim>512</dim>
          <dim>38</dim>
          <dim>38</dim>
        </port>
      </input>
      <output>
        <port id="137">
          <dim>1</dim>
          <dim>256</dim>
          <dim>38</dim>
          <dim>38</dim>
        </port>
      </output>
      <weights size="262144" offset="2884108"/>
      <biases size="512" offset="3146252"/>
    </layer>
    <layer precision="FP16" id="67" type="ReLU" name="ReLU_stage3_unit1_relu2">
      <input>
        <port id="140">
          <dim>1</dim>
          <dim>256</dim>
          <dim>38</dim>
          <dim>38</dim>
        </port>
      </input>
      <output>
        <port id="139">
          <dim>1</dim>
          <dim>256</dim>
          <dim>38</dim>
          <dim>38</dim>
        </port>
      </output>
    </layer>
    <layer precision="FP16" id="68" type="Convolution" name="Convolution_stage3_unit1_conv2">
      <convolution_data dilation-x="1" kernel-y="3" stride-x="2" output="256" pad-y="1" stride-y="2" dilation-y="1" pad-x="1" group="1" kernel-x="3"/>
      <input>
        <port id="142">
          <dim>1</dim>
          <dim>256</dim>
          <dim>38</dim>
          <dim>38</dim>
        </port>
      </input>
      <output>
        <port id="141">
          <dim>1</dim>
          <dim>256</dim>
          <dim>19</dim>
          <dim>19</dim>
        </port>
      </output>
      <weights size="1179648" offset="3146764"/>
      <biases size="512" offset="4326412"/>
    </layer>
    <layer precision="FP16" id="69" type="ReLU" name="ReLU_stage3_unit1_relu3">
      <input>
        <port id="144">
          <dim>1</dim>
          <dim>256</dim>
          <dim>19</dim>
          <dim>19</dim>
        </port>
      </input>
      <output>
        <port id="143">
          <dim>1</dim>
          <dim>256</dim>
          <dim>19</dim>
          <dim>19</dim>
        </port>
      </output>
    </layer>
    <layer precision="FP16" id="70" type="Convolution" name="Convolution_stage3_unit1_conv3">
      <convolution_data dilation-x="1" kernel-y="1" stride-x="1" output="1024" pad-y="0" stride-y="1" dilation-y="1" pad-x="0" group="1" kernel-x="1"/>
      <input>
        <port id="146">
          <dim>1</dim>
          <dim>256</dim>
          <dim>19</dim>
          <dim>19</dim>
        </port>
      </input>
      <output>
        <port id="145">
          <dim>1</dim>
          <dim>1024</dim>
          <dim>19</dim>
          <dim>19</dim>
        </port>
      </output>
      <weights size="524288" offset="4326924"/>
    </layer>
    <layer precision="FP16" id="71" type="Convolution" name="Convolution_stage3_unit1_sc">
      <convolution_data dilation-x="1" kernel-y="1" stride-x="2" output="1024" pad-y="0" stride-y="2" dilation-y="1" pad-x="0" group="1" kernel-x="1"/>
      <input>
        <port id="148">
          <dim>1</dim>
          <dim>512</dim>
          <dim>38</dim>
          <dim>38</dim>
        </port>
      </input>
      <output>
        <port id="147">
          <dim>1</dim>
          <dim>1024</dim>
          <dim>19</dim>
          <dim>19</dim>
        </port>
      </output>
      <weights size="1048576" offset="4851212"/>
    </layer>
    <layer precision="FP16" id="72" type="Eltwise" name="Eltwise__plus7">
      <elementwise_data operation="sum"/>
      <input>
        <port id="150">
          <dim>1</dim>
          <dim>1024</dim>
          <dim>19</dim>
          <dim>19</dim>
        </port>
        <port id="151">
          <dim>1</dim>
          <dim>1024</dim>
          <dim>19</dim>
          <dim>19</dim>
        </port>
      </input>
      <output>
        <port id="149">
          <dim>1</dim>
          <dim>1024</dim>
          <dim>19</dim>
          <dim>19</dim>
        </port>
      </output>
    </layer>
    <layer precision="FP16" id="73" type="ScaleShift" name="ScaleShift_stage3_unit2_bn1">
      <input>
        <port id="153">
          <dim>1</dim>
          <dim>1024</dim>
          <dim>19</dim>
          <dim>19</dim>
        </port>
      </input>
      <output>
        <port id="152">
          <dim>1</dim>
          <dim>1024</dim>
          <dim>19</dim>
          <dim>19</dim>
        </port>
      </output>
      <weights size="2048" offset="5899788"/>
      <biases size="2048" offset="5901836"/>
    </layer>
    <layer precision="FP16" id="74" type="ReLU" name="ReLU_stage3_unit2_relu1">
      <input>
        <port id="155">
          <dim>1</dim>
          <dim>1024</dim>
          <dim>19</dim>
          <dim>19</dim>
        </port>
      </input>
      <output>
        <port id="154">
          <dim>1</dim>
          <dim>1024</dim>
          <dim>19</dim>
          <dim>19</dim>
        </port>
      </output>
    </layer>
    <layer precision="FP16" id="75" type="Convolution" name="Convolution_stage3_unit2_conv1">
      <convolution_data dilation-x="1" kernel-y="1" stride-x="1" output="256" pad-y="0" stride-y="1" dilation-y="1" pad-x="0" group="1" kernel-x="1"/>
      <input>
        <port id="157">
          <dim>1</dim>
          <dim>1024</dim>
          <dim>19</dim>
          <dim>19</dim>
        </port>
      </input>
      <output>
        <port id="156">
          <dim>1</dim>
          <dim>256</dim>
          <dim>19</dim>
          <dim>19</dim>
        </port>
      </output>
      <weights size="524288" offset="5903884"/>
      <biases size="512" offset="6428172"/>
    </layer>
    <layer precision="FP16" id="76" type="ReLU" name="ReLU_stage3_unit2_relu2">
      <input>
        <port id="159">
          <dim>1</dim>
          <dim>256</dim>
          <dim>19</dim>
          <dim>19</dim>
        </port>
      </input>
      <output>
        <port id="158">
          <dim>1</dim>
          <dim>256</dim>
          <dim>19</dim>
          <dim>19</dim>
        </port>
      </output>
    </layer>
    <layer precision="FP16" id="77" type="Convolution" name="Convolution_stage3_unit2_conv2">
      <convolution_data dilation-x="1" kernel-y="3" stride-x="1" output="256" pad-y="1" stride-y="1" dilation-y="1" pad-x="1" group="1" kernel-x="3"/>
      <input>
        <port id="161">
          <dim>1</dim>
          <dim>256</dim>
          <dim>19</dim>
          <dim>19</dim>
        </port>
      </input>
      <output>
        <port id="160">
          <dim>1</dim>
          <dim>256</dim>
          <dim>19</dim>
          <dim>19</dim>
        </port>
      </output>
      <weights size="1179648" offset="6428684"/>
      <biases size="512" offset="7608332"/>
    </layer>
    <layer precision="FP16" id="78" type="ReLU" name="ReLU_stage3_unit2_relu3">
      <input>
        <port id="163">
          <dim>1</dim>
          <dim>256</dim>
          <dim>19</dim>
          <dim>19</dim>
        </port>
      </input>
      <output>
        <port id="162">
          <dim>1</dim>
          <dim>256</dim>
          <dim>19</dim>
          <dim>19</dim>
        </port>
      </output>
    </layer>
    <layer precision="FP16" id="79" type="Convolution" name="Convolution_stage3_unit2_conv3">
      <convolution_data dilation-x="1" kernel-y="1" stride-x="1" output="1024" pad-y="0" stride-y="1" dilation-y="1" pad-x="0" group="1" kernel-x="1"/>
      <input>
        <port id="165">
          <dim>1</dim>
          <dim>256</dim>
          <dim>19</dim>
          <dim>19</dim>
        </port>
      </input>
      <output>
        <port id="164">
          <dim>1</dim>
          <dim>1024</dim>
          <dim>19</dim>
          <dim>19</dim>
        </port>
      </output>
      <weights size="524288" offset="7608844"/>
    </layer>
    <layer precision="FP16" id="80" type="Eltwise" name="Eltwise__plus8">
      <elementwise_data operation="sum"/>
      <input>
        <port id="167">
          <dim>1</dim>
          <dim>1024</dim>
          <dim>19</dim>
          <dim>19</dim>
        </port>
        <port id="168">
          <dim>1</dim>
          <dim>1024</dim>
          <dim>19</dim>
          <dim>19</dim>
        </port>
      </input>
      <output>
        <port id="166">
          <dim>1</dim>
          <dim>1024</dim>
          <dim>19</dim>
          <dim>19</dim>
        </port>
      </output>
    </layer>
    <layer precision="FP16" id="81" type="ScaleShift" name="ScaleShift_stage3_unit3_bn1">
      <input>
        <port id="170">
          <dim>1</dim>
          <dim>1024</dim>
          <dim>19</dim>
          <dim>19</dim>
        </port>
      </input>
      <output>
        <port id="169">
          <dim>1</dim>
          <dim>1024</dim>
          <dim>19</dim>
          <dim>19</dim>
        </port>
      </output>
      <weights size="2048" offset="8133132"/>
      <biases size="2048" offset="8135180"/>
    </layer>
    <layer precision="FP16" id="82" type="ReLU" name="ReLU_stage3_unit3_relu1">
      <input>
        <port id="172">
          <dim>1</dim>
          <dim>1024</dim>
          <dim>19</dim>
          <dim>19</dim>
        </port>
      </input>
      <output>
        <port id="171">
          <dim>1</dim>
          <dim>1024</dim>
          <dim>19</dim>
          <dim>19</dim>
        </port>
      </output>
    </layer>
    <layer precision="FP16" id="83" type="Convolution" name="Convolution_stage3_unit3_conv1">
      <convolution_data dilation-x="1" kernel-y="1" stride-x="1" output="256" pad-y="0" stride-y="1" dilation-y="1" pad-x="0" group="1" kernel-x="1"/>
      <input>
        <port id="174">
          <dim>1</dim>
          <dim>1024</dim>
          <dim>19</dim>
          <dim>19</dim>
        </port>
      </input>
      <output>
        <port id="173">
          <dim>1</dim>
          <dim>256</dim>
          <dim>19</dim>
          <dim>19</dim>
        </port>
      </output>
      <weights size="524288" offset="8137228"/>
      <biases size="512" offset="8661516"/>
    </layer>
    <layer precision="FP16" id="84" type="ReLU" name="ReLU_stage3_unit3_relu2">
      <input>
        <port id="176">
          <dim>1</dim>
          <dim>256</dim>
          <dim>19</dim>
          <dim>19</dim>
        </port>
      </input>
      <output>
        <port id="175">
          <dim>1</dim>
          <dim>256</dim>
          <dim>19</dim>
          <dim>19</dim>
        </port>
      </output>
    </layer>
    <layer precision="FP16" id="85" type="Convolution" name="Convolution_stage3_unit3_conv2">
      <convolution_data dilation-x="1" kernel-y="3" stride-x="1" output="256" pad-y="1" stride-y="1" dilation-y="1" pad-x="1" group="1" kernel-x="3"/>
      <input>
        <port id="178">
          <dim>1</dim>
          <dim>256</dim>
          <dim>19</dim>
          <dim>19</dim>
        </port>
      </input>
      <output>
        <port id="177">
          <dim>1</dim>
          <dim>256</dim>
          <dim>19</dim>
          <dim>19</dim>
        </port>
      </output>
      <weights size="1179648" offset="8662028"/>
      <biases size="512" offset="9841676"/>
    </layer>
    <layer precision="FP16" id="86" type="ReLU" name="ReLU_stage3_unit3_relu3">
      <input>
        <port id="180">
          <dim>1</dim>
          <dim>256</dim>
          <dim>19</dim>
          <dim>19</dim>
        </port>
      </input>
      <output>
        <port id="179">
          <dim>1</dim>
          <dim>256</dim>
          <dim>19</dim>
          <dim>19</dim>
        </port>
      </output>
    </layer>
    <layer precision="FP16" id="87" type="Convolution" name="Convolution_stage3_unit3_conv3">
      <convolution_data dilation-x="1" kernel-y="1" stride-x="1" output="1024" pad-y="0" stride-y="1" dilation-y="1" pad-x="0" group="1" kernel-x="1"/>
      <input>
        <port id="182">
          <dim>1</dim>
          <dim>256</dim>
          <dim>19</dim>
          <dim>19</dim>
        </port>
      </input>
      <output>
        <port id="181">
          <dim>1</dim>
          <dim>1024</dim>
          <dim>19</dim>
          <dim>19</dim>
        </port>
      </output>
      <weights size="524288" offset="9842188"/>
    </layer>
    <layer precision="FP16" id="88" type="Eltwise" name="Eltwise__plus9">
      <elementwise_data operation="sum"/>
      <input>
        <port id="184">
          <dim>1</dim>
          <dim>1024</dim>
          <dim>19</dim>
          <dim>19</dim>
        </port>
        <port id="185">
          <dim>1</dim>
          <dim>1024</dim>
          <dim>19</dim>
          <dim>19</dim>
        </port>
      </input>
      <output>
        <port id="183">
          <dim>1</dim>
          <dim>1024</dim>
          <dim>19</dim>
          <dim>19</dim>
        </port>
      </output>
    </layer>
    <layer precision="FP16" id="89" type="ScaleShift" name="ScaleShift_stage3_unit4_bn1">
      <input>
        <port id="187">
          <dim>1</dim>
          <dim>1024</dim>
          <dim>19</dim>
          <dim>19</dim>
        </port>
      </input>
      <output>
        <port id="186">
          <dim>1</dim>
          <dim>1024</dim>
          <dim>19</dim>
          <dim>19</dim>
        </port>
      </output>
      <weights size="2048" offset="10366476"/>
      <biases size="2048" offset="10368524"/>
    </layer>
    <layer precision="FP16" id="90" type="ReLU" name="ReLU_stage3_unit4_relu1">
      <input>
        <port id="189">
          <dim>1</dim>
          <dim>1024</dim>
          <dim>19</dim>
          <dim>19</dim>
        </port>
      </input>
      <output>
        <port id="188">
          <dim>1</dim>
          <dim>1024</dim>
          <dim>19</dim>
          <dim>19</dim>
        </port>
      </output>
    </layer>
    <layer precision="FP16" id="91" type="Convolution" name="Convolution_stage3_unit4_conv1">
      <convolution_data dilation-x="1" kernel-y="1" stride-x="1" output="256" pad-y="0" stride-y="1" dilation-y="1" pad-x="0" group="1" kernel-x="1"/>
      <input>
        <port id="191">
          <dim>1</dim>
          <dim>1024</dim>
          <dim>19</dim>
          <dim>19</dim>
        </port>
      </input>
      <output>
        <port id="190">
          <dim>1</dim>
          <dim>256</dim>
          <dim>19</dim>
          <dim>19</dim>
        </port>
      </output>
      <weights size="524288" offset="10370572"/>
      <biases size="512" offset="10894860"/>
    </layer>
    <layer precision="FP16" id="92" type="ReLU" name="ReLU_stage3_unit4_relu2">
      <input>
        <port id="193">
          <dim>1</dim>
          <dim>256</dim>
          <dim>19</dim>
          <dim>19</dim>
        </port>
      </input>
      <output>
        <port id="192">
          <dim>1</dim>
          <dim>256</dim>
          <dim>19</dim>
          <dim>19</dim>
        </port>
      </output>
    </layer>
    <layer precision="FP16" id="93" type="Convolution" name="Convolution_stage3_unit4_conv2">
      <convolution_data dilation-x="1" kernel-y="3" stride-x="1" output="256" pad-y="1" stride-y="1" dilation-y="1" pad-x="1" group="1" kernel-x="3"/>
      <input>
        <port id="195">
          <dim>1</dim>
          <dim>256</dim>
          <dim>19</dim>
          <dim>19</dim>
        </port>
      </input>
      <output>
        <port id="194">
          <dim>1</dim>
          <dim>256</dim>
          <dim>19</dim>
          <dim>19</dim>
        </port>
      </output>
      <weights size="1179648" offset="10895372"/>
      <biases size="512" offset="12075020"/>
    </layer>
    <layer precision="FP16" id="94" type="ReLU" name="ReLU_stage3_unit4_relu3">
      <input>
        <port id="197">
          <dim>1</dim>
          <dim>256</dim>
          <dim>19</dim>
          <dim>19</dim>
        </port>
      </input>
      <output>
        <port id="196">
          <dim>1</dim>
          <dim>256</dim>
          <dim>19</dim>
          <dim>19</dim>
        </port>
      </output>
    </layer>
    <layer precision="FP16" id="95" type="Convolution" name="Convolution_stage3_unit4_conv3">
      <convolution_data dilation-x="1" kernel-y="1" stride-x="1" output="1024" pad-y="0" stride-y="1" dilation-y="1" pad-x="0" group="1" kernel-x="1"/>
      <input>
        <port id="199">
          <dim>1</dim>
          <dim>256</dim>
          <dim>19</dim>
          <dim>19</dim>
        </port>
      </input>
      <output>
        <port id="198">
          <dim>1</dim>
          <dim>1024</dim>
          <dim>19</dim>
          <dim>19</dim>
        </port>
      </output>
      <weights size="524288" offset="12075532"/>
    </layer>
    <layer precision="FP16" id="96" type="Eltwise" name="Eltwise__plus10">
      <elementwise_data operation="sum"/>
      <input>
        <port id="201">
          <dim>1</dim>
          <dim>1024</dim>
          <dim>19</dim>
          <dim>19</dim>
        </port>
        <port id="202">
          <dim>1</dim>
          <dim>1024</dim>
          <dim>19</dim>
          <dim>19</dim>
        </port>
      </input>
      <output>
        <port id="200">
          <dim>1</dim>
          <dim>1024</dim>
          <dim>19</dim>
          <dim>19</dim>
        </port>
      </output>
    </layer>
    <layer precision="FP16" id="97" type="ScaleShift" name="ScaleShift_stage3_unit5_bn1">
      <input>
        <port id="204">
          <dim>1</dim>
          <dim>1024</dim>
          <dim>19</dim>
          <dim>19</dim>
        </port>
      </input>
      <output>
        <port id="203">
          <dim>1</dim>
          <dim>1024</dim>
          <dim>19</dim>
          <dim>19</dim>
        </port>
      </output>
      <weights size="2048" offset="12599820"/>
      <biases size="2048" offset="12601868"/>
    </layer>
    <layer precision="FP16" id="98" type="ReLU" name="ReLU_stage3_unit5_relu1">
      <input>
        <port id="206">
          <dim>1</dim>
          <dim>1024</dim>
          <dim>19</dim>
          <dim>19</dim>
        </port>
      </input>
      <output>
        <port id="205">
          <dim>1</dim>
          <dim>1024</dim>
          <dim>19</dim>
          <dim>19</dim>
        </port>
      </output>
    </layer>
    <layer precision="FP16" id="99" type="Convolution" name="Convolution_stage3_unit5_conv1">
      <convolution_data dilation-x="1" kernel-y="1" stride-x="1" output="256" pad-y="0" stride-y="1" dilation-y="1" pad-x="0" group="1" kernel-x="1"/>
      <input>
        <port id="208">
          <dim>1</dim>
          <dim>1024</dim>
          <dim>19</dim>
          <dim>19</dim>
        </port>
      </input>
      <output>
        <port id="207">
          <dim>1</dim>
          <dim>256</dim>
          <dim>19</dim>
          <dim>19</dim>
        </port>
      </output>
      <weights size="524288" offset="12603916"/>
      <biases size="512" offset="13128204"/>
    </layer>
    <layer precision="FP16" id="100" type="ReLU" name="ReLU_stage3_unit5_relu2">
      <input>
        <port id="210">
          <dim>1</dim>
          <dim>256</dim>
          <dim>19</dim>
          <dim>19</dim>
        </port>
      </input>
      <output>
        <port id="209">
          <dim>1</dim>
          <dim>256</dim>
          <dim>19</dim>
          <dim>19</dim>
        </port>
      </output>
    </layer>
    <layer precision="FP16" id="101" type="Convolution" name="Convolution_stage3_unit5_conv2">
      <convolution_data dilation-x="1" kernel-y="3" stride-x="1" output="256" pad-y="1" stride-y="1" dilation-y="1" pad-x="1" group="1" kernel-x="3"/>
      <input>
        <port id="212">
          <dim>1</dim>
          <dim>256</dim>
          <dim>19</dim>
          <dim>19</dim>
        </port>
      </input>
      <output>
        <port id="211">
          <dim>1</dim>
          <dim>256</dim>
          <dim>19</dim>
          <dim>19</dim>
        </port>
      </output>
      <weights size="1179648" offset="13128716"/>
      <biases size="512" offset="14308364"/>
    </layer>
    <layer precision="FP16" id="102" type="ReLU" name="ReLU_stage3_unit5_relu3">
      <input>
        <port id="214">
          <dim>1</dim>
          <dim>256</dim>
          <dim>19</dim>
          <dim>19</dim>
        </port>
      </input>
      <output>
        <port id="213">
          <dim>1</dim>
          <dim>256</dim>
          <dim>19</dim>
          <dim>19</dim>
        </port>
      </output>
    </layer>
    <layer precision="FP16" id="103" type="Convolution" name="Convolution_stage3_unit5_conv3">
      <convolution_data dilation-x="1" kernel-y="1" stride-x="1" output="1024" pad-y="0" stride-y="1" dilation-y="1" pad-x="0" group="1" kernel-x="1"/>
      <input>
        <port id="216">
          <dim>1</dim>
          <dim>256</dim>
          <dim>19</dim>
          <dim>19</dim>
        </port>
      </input>
      <output>
        <port id="215">
          <dim>1</dim>
          <dim>1024</dim>
          <dim>19</dim>
          <dim>19</dim>
        </port>
      </output>
      <weights size="524288" offset="14308876"/>
    </layer>
    <layer precision="FP16" id="104" type="Eltwise" name="Eltwise__plus11">
      <elementwise_data operation="sum"/>
      <input>
        <port id="218">
          <dim>1</dim>
          <dim>1024</dim>
          <dim>19</dim>
          <dim>19</dim>
        </port>
        <port id="219">
          <dim>1</dim>
          <dim>1024</dim>
          <dim>19</dim>
          <dim>19</dim>
        </port>
      </input>
      <output>
        <port id="217">
          <dim>1</dim>
          <dim>1024</dim>
          <dim>19</dim>
          <dim>19</dim>
        </port>
      </output>
    </layer>
    <layer precision="FP16" id="105" type="ScaleShift" name="ScaleShift_stage3_unit6_bn1">
      <input>
        <port id="221">
          <dim>1</dim>
          <dim>1024</dim>
          <dim>19</dim>
          <dim>19</dim>
        </port>
      </input>
      <output>
        <port id="220">
          <dim>1</dim>
          <dim>1024</dim>
          <dim>19</dim>
          <dim>19</dim>
        </port>
      </output>
      <weights size="2048" offset="14833164"/>
      <biases size="2048" offset="14835212"/>
    </layer>
    <layer precision="FP16" id="106" type="ReLU" name="ReLU_stage3_unit6_relu1">
      <input>
        <port id="223">
          <dim>1</dim>
          <dim>1024</dim>
          <dim>19</dim>
          <dim>19</dim>
        </port>
      </input>
      <output>
        <port id="222">
          <dim>1</dim>
          <dim>1024</dim>
          <dim>19</dim>
          <dim>19</dim>
        </port>
      </output>
    </layer>
    <layer precision="FP16" id="107" type="Convolution" name="Convolution_stage3_unit6_conv1">
      <convolution_data dilation-x="1" kernel-y="1" stride-x="1" output="256" pad-y="0" stride-y="1" dilation-y="1" pad-x="0" group="1" kernel-x="1"/>
      <input>
        <port id="225">
          <dim>1</dim>
          <dim>1024</dim>
          <dim>19</dim>
          <dim>19</dim>
        </port>
      </input>
      <output>
        <port id="224">
          <dim>1</dim>
          <dim>256</dim>
          <dim>19</dim>
          <dim>19</dim>
        </port>
      </output>
      <weights size="524288" offset="14837260"/>
      <biases size="512" offset="15361548"/>
    </layer>
    <layer precision="FP16" id="108" type="ReLU" name="ReLU_stage3_unit6_relu2">
      <input>
        <port id="227">
          <dim>1</dim>
          <dim>256</dim>
          <dim>19</dim>
          <dim>19</dim>
        </port>
      </input>
      <output>
        <port id="226">
          <dim>1</dim>
          <dim>256</dim>
          <dim>19</dim>
          <dim>19</dim>
        </port>
      </output>
    </layer>
    <layer precision="FP16" id="109" type="Convolution" name="Convolution_stage3_unit6_conv2">
      <convolution_data dilation-x="1" kernel-y="3" stride-x="1" output="256" pad-y="1" stride-y="1" dilation-y="1" pad-x="1" group="1" kernel-x="3"/>
      <input>
        <port id="229">
          <dim>1</dim>
          <dim>256</dim>
          <dim>19</dim>
          <dim>19</dim>
        </port>
      </input>
      <output>
        <port id="228">
          <dim>1</dim>
          <dim>256</dim>
          <dim>19</dim>
          <dim>19</dim>
        </port>
      </output>
      <weights size="1179648" offset="15362060"/>
      <biases size="512" offset="16541708"/>
    </layer>
    <layer precision="FP16" id="110" type="ReLU" name="ReLU_stage3_unit6_relu3">
      <input>
        <port id="231">
          <dim>1</dim>
          <dim>256</dim>
          <dim>19</dim>
          <dim>19</dim>
        </port>
      </input>
      <output>
        <port id="230">
          <dim>1</dim>
          <dim>256</dim>
          <dim>19</dim>
          <dim>19</dim>
        </port>
      </output>
    </layer>
    <layer precision="FP16" id="111" type="Convolution" name="Convolution_stage3_unit6_conv3">
      <convolution_data dilation-x="1" kernel-y="1" stride-x="1" output="1024" pad-y="0" stride-y="1" dilation-y="1" pad-x="0" group="1" kernel-x="1"/>
      <input>
        <port id="233">
          <dim>1</dim>
          <dim>256</dim>
          <dim>19</dim>
          <dim>19</dim>
        </port>
      </input>
      <output>
        <port id="232">
          <dim>1</dim>
          <dim>1024</dim>
          <dim>19</dim>
          <dim>19</dim>
        </port>
      </output>
      <weights size="524288" offset="16542220"/>
    </layer>
    <layer precision="FP16" id="112" type="Eltwise" name="Eltwise__plus12">
      <elementwise_data operation="sum"/>
      <input>
        <port id="235">
          <dim>1</dim>
          <dim>1024</dim>
          <dim>19</dim>
          <dim>19</dim>
        </port>
        <port id="236">
          <dim>1</dim>
          <dim>1024</dim>
          <dim>19</dim>
          <dim>19</dim>
        </port>
      </input>
      <output>
        <port id="234">
          <dim>1</dim>
          <dim>1024</dim>
          <dim>19</dim>
          <dim>19</dim>
        </port>
      </output>
    </layer>
    <layer precision="FP16" id="113" type="ScaleShift" name="ScaleShift_stage4_unit1_bn1">
      <input>
        <port id="238">
          <dim>1</dim>
          <dim>1024</dim>
          <dim>19</dim>
          <dim>19</dim>
        </port>
      </input>
      <output>
        <port id="237">
          <dim>1</dim>
          <dim>1024</dim>
          <dim>19</dim>
          <dim>19</dim>
        </port>
      </output>
      <weights size="2048" offset="17066508"/>
      <biases size="2048" offset="17068556"/>
    </layer>
    <layer precision="FP16" id="114" type="ReLU" name="ReLU_stage4_unit1_relu1">
      <input>
        <port id="240">
          <dim>1</dim>
          <dim>1024</dim>
          <dim>19</dim>
          <dim>19</dim>
        </port>
      </input>
      <output>
        <port id="239">
          <dim>1</dim>
          <dim>1024</dim>
          <dim>19</dim>
          <dim>19</dim>
        </port>
      </output>
    </layer>
    <layer precision="FP16" id="115" type="Convolution" name="Convolution_stage4_unit1_conv1">
      <convolution_data dilation-x="1" kernel-y="1" stride-x="1" output="512" pad-y="0" stride-y="1" dilation-y="1" pad-x="0" group="1" kernel-x="1"/>
      <input>
        <port id="242">
          <dim>1</dim>
          <dim>1024</dim>
          <dim>19</dim>
          <dim>19</dim>
        </port>
      </input>
      <output>
        <port id="241">
          <dim>1</dim>
          <dim>512</dim>
          <dim>19</dim>
          <dim>19</dim>
        </port>
      </output>
      <weights size="1048576" offset="17070604"/>
      <biases size="1024" offset="18119180"/>
    </layer>
    <layer precision="FP16" id="116" type="ReLU" name="ReLU_stage4_unit1_relu2">
      <input>
        <port id="244">
          <dim>1</dim>
          <dim>512</dim>
          <dim>19</dim>
          <dim>19</dim>
        </port>
      </input>
      <output>
        <port id="243">
          <dim>1</dim>
          <dim>512</dim>
          <dim>19</dim>
          <dim>19</dim>
        </port>
      </output>
    </layer>
    <layer precision="FP16" id="117" type="Convolution" name="Convolution_stage4_unit1_conv2">
      <convolution_data dilation-x="1" kernel-y="3" stride-x="2" output="512" pad-y="1" stride-y="2" dilation-y="1" pad-x="1" group="1" kernel-x="3"/>
      <input>
        <port id="246">
          <dim>1</dim>
          <dim>512</dim>
          <dim>19</dim>
          <dim>19</dim>
        </port>
      </input>
      <output>
        <port id="245">
          <dim>1</dim>
          <dim>512</dim>
          <dim>10</dim>
          <dim>10</dim>
        </port>
      </output>
      <weights size="4718592" offset="18120204"/>
      <biases size="1024" offset="22838796"/>
    </layer>
    <layer precision="FP16" id="118" type="ReLU" name="ReLU_stage4_unit1_relu3">
      <input>
        <port id="248">
          <dim>1</dim>
          <dim>512</dim>
          <dim>10</dim>
          <dim>10</dim>
        </port>
      </input>
      <output>
        <port id="247">
          <dim>1</dim>
          <dim>512</dim>
          <dim>10</dim>
          <dim>10</dim>
        </port>
      </output>
    </layer>
    <layer precision="FP16" id="119" type="Convolution" name="Convolution_stage4_unit1_conv3">
      <convolution_data dilation-x="1" kernel-y="1" stride-x="1" output="2048" pad-y="0" stride-y="1" dilation-y="1" pad-x="0" group="1" kernel-x="1"/>
      <input>
        <port id="250">
          <dim>1</dim>
          <dim>512</dim>
          <dim>10</dim>
          <dim>10</dim>
        </port>
      </input>
      <output>
        <port id="249">
          <dim>1</dim>
          <dim>2048</dim>
          <dim>10</dim>
          <dim>10</dim>
        </port>
      </output>
      <weights size="2097152" offset="22839820"/>
    </layer>
    <layer precision="FP16" id="120" type="Convolution" name="Convolution_stage4_unit1_sc">
      <convolution_data dilation-x="1" kernel-y="1" stride-x="2" output="2048" pad-y="0" stride-y="2" dilation-y="1" pad-x="0" group="1" kernel-x="1"/>
      <input>
        <port id="252">
          <dim>1</dim>
          <dim>1024</dim>
          <dim>19</dim>
          <dim>19</dim>
        </port>
      </input>
      <output>
        <port id="251">
          <dim>1</dim>
          <dim>2048</dim>
          <dim>10</dim>
          <dim>10</dim>
        </port>
      </output>
      <weights size="4194304" offset="24936972"/>
    </layer>
    <layer precision="FP16" id="121" type="Eltwise" name="Eltwise__plus13">
      <elementwise_data operation="sum"/>
      <input>
        <port id="254">
          <dim>1</dim>
          <dim>2048</dim>
          <dim>10</dim>
          <dim>10</dim>
        </port>
        <port id="255">
          <dim>1</dim>
          <dim>2048</dim>
          <dim>10</dim>
          <dim>10</dim>
        </port>
      </input>
      <output>
        <port id="253">
          <dim>1</dim>
          <dim>2048</dim>
          <dim>10</dim>
          <dim>10</dim>
        </port>
      </output>
    </layer>
    <layer precision="FP16" id="122" type="ScaleShift" name="ScaleShift_stage4_unit2_bn1">
      <input>
        <port id="257">
          <dim>1</dim>
          <dim>2048</dim>
          <dim>10</dim>
          <dim>10</dim>
        </port>
      </input>
      <output>
        <port id="256">
          <dim>1</dim>
          <dim>2048</dim>
          <dim>10</dim>
          <dim>10</dim>
        </port>
      </output>
      <weights size="4096" offset="29131276"/>
      <biases size="4096" offset="29135372"/>
    </layer>
    <layer precision="FP16" id="123" type="ReLU" name="ReLU_stage4_unit2_relu1">
      <input>
        <port id="259">
          <dim>1</dim>
          <dim>2048</dim>
          <dim>10</dim>
          <dim>10</dim>
        </port>
      </input>
      <output>
        <port id="258">
          <dim>1</dim>
          <dim>2048</dim>
          <dim>10</dim>
          <dim>10</dim>
        </port>
      </output>
    </layer>
    <layer precision="FP16" id="124" type="Convolution" name="Convolution_stage4_unit2_conv1">
      <convolution_data dilation-x="1" kernel-y="1" stride-x="1" output="512" pad-y="0" stride-y="1" dilation-y="1" pad-x="0" group="1" kernel-x="1"/>
      <input>
        <port id="261">
          <dim>1</dim>
          <dim>2048</dim>
          <dim>10</dim>
          <dim>10</dim>
        </port>
      </input>
      <output>
        <port id="260">
          <dim>1</dim>
          <dim>512</dim>
          <dim>10</dim>
          <dim>10</dim>
        </port>
      </output>
      <weights size="2097152" offset="29139468"/>
      <biases size="1024" offset="31236620"/>
    </layer>
    <layer precision="FP16" id="125" type="ReLU" name="ReLU_stage4_unit2_relu2">
      <input>
        <port id="263">
          <dim>1</dim>
          <dim>512</dim>
          <dim>10</dim>
          <dim>10</dim>
        </port>
      </input>
      <output>
        <port id="262">
          <dim>1</dim>
          <dim>512</dim>
          <dim>10</dim>
          <dim>10</dim>
        </port>
      </output>
    </layer>
    <layer precision="FP16" id="126" type="Convolution" name="Convolution_stage4_unit2_conv2">
      <convolution_data dilation-x="1" kernel-y="3" stride-x="1" output="512" pad-y="1" stride-y="1" dilation-y="1" pad-x="1" group="1" kernel-x="3"/>
      <input>
        <port id="265">
          <dim>1</dim>
          <dim>512</dim>
          <dim>10</dim>
          <dim>10</dim>
        </port>
      </input>
      <output>
        <port id="264">
          <dim>1</dim>
          <dim>512</dim>
          <dim>10</dim>
          <dim>10</dim>
        </port>
      </output>
      <weights size="4718592" offset="31237644"/>
      <biases size="1024" offset="35956236"/>
    </layer>
    <layer precision="FP16" id="127" type="ReLU" name="ReLU_stage4_unit2_relu3">
      <input>
        <port id="267">
          <dim>1</dim>
          <dim>512</dim>
          <dim>10</dim>
          <dim>10</dim>
        </port>
      </input>
      <output>
        <port id="266">
          <dim>1</dim>
          <dim>512</dim>
          <dim>10</dim>
          <dim>10</dim>
        </port>
      </output>
    </layer>
    <layer precision="FP16" id="128" type="Convolution" name="Convolution_stage4_unit2_conv3">
      <convolution_data dilation-x="1" kernel-y="1" stride-x="1" output="2048" pad-y="0" stride-y="1" dilation-y="1" pad-x="0" group="1" kernel-x="1"/>
      <input>
        <port id="269">
          <dim>1</dim>
          <dim>512</dim>
          <dim>10</dim>
          <dim>10</dim>
        </port>
      </input>
      <output>
        <port id="268">
          <dim>1</dim>
          <dim>2048</dim>
          <dim>10</dim>
          <dim>10</dim>
        </port>
      </output>
      <weights size="2097152" offset="35957260"/>
    </layer>
    <layer precision="FP16" id="129" type="Eltwise" name="Eltwise__plus14">
      <elementwise_data operation="sum"/>
      <input>
        <port id="271">
          <dim>1</dim>
          <dim>2048</dim>
          <dim>10</dim>
          <dim>10</dim>
        </port>
        <port id="272">
          <dim>1</dim>
          <dim>2048</dim>
          <dim>10</dim>
          <dim>10</dim>
        </port>
      </input>
      <output>
        <port id="270">
          <dim>1</dim>
          <dim>2048</dim>
          <dim>10</dim>
          <dim>10</dim>
        </port>
      </output>
    </layer>
    <layer precision="FP16" id="130" type="ScaleShift" name="ScaleShift_stage4_unit3_bn1">
      <input>
        <port id="274">
          <dim>1</dim>
          <dim>2048</dim>
          <dim>10</dim>
          <dim>10</dim>
        </port>
      </input>
      <output>
        <port id="273">
          <dim>1</dim>
          <dim>2048</dim>
          <dim>10</dim>
          <dim>10</dim>
        </port>
      </output>
      <weights size="4096" offset="38054412"/>
      <biases size="4096" offset="38058508"/>
    </layer>
    <layer precision="FP16" id="131" type="ReLU" name="ReLU_stage4_unit3_relu1">
      <input>
        <port id="276">
          <dim>1</dim>
          <dim>2048</dim>
          <dim>10</dim>
          <dim>10</dim>
        </port>
      </input>
      <output>
        <port id="275">
          <dim>1</dim>
          <dim>2048</dim>
          <dim>10</dim>
          <dim>10</dim>
        </port>
      </output>
    </layer>
    <layer precision="FP16" id="132" type="Convolution" name="Convolution_stage4_unit3_conv1">
      <convolution_data dilation-x="1" kernel-y="1" stride-x="1" output="512" pad-y="0" stride-y="1" dilation-y="1" pad-x="0" group="1" kernel-x="1"/>
      <input>
        <port id="278">
          <dim>1</dim>
          <dim>2048</dim>
          <dim>10</dim>
          <dim>10</dim>
        </port>
      </input>
      <output>
        <port id="277">
          <dim>1</dim>
          <dim>512</dim>
          <dim>10</dim>
          <dim>10</dim>
        </port>
      </output>
      <weights size="2097152" offset="38062604"/>
      <biases size="1024" offset="40159756"/>
    </layer>
    <layer precision="FP16" id="133" type="ReLU" name="ReLU_stage4_unit3_relu2">
      <input>
        <port id="280">
          <dim>1</dim>
          <dim>512</dim>
          <dim>10</dim>
          <dim>10</dim>
        </port>
      </input>
      <output>
        <port id="279">
          <dim>1</dim>
          <dim>512</dim>
          <dim>10</dim>
          <dim>10</dim>
        </port>
      </output>
    </layer>
    <layer precision="FP16" id="134" type="Convolution" name="Convolution_stage4_unit3_conv2">
      <convolution_data dilation-x="1" kernel-y="3" stride-x="1" output="512" pad-y="1" stride-y="1" dilation-y="1" pad-x="1" group="1" kernel-x="3"/>
      <input>
        <port id="282">
          <dim>1</dim>
          <dim>512</dim>
          <dim>10</dim>
          <dim>10</dim>
        </port>
      </input>
      <output>
        <port id="281">
          <dim>1</dim>
          <dim>512</dim>
          <dim>10</dim>
          <dim>10</dim>
        </port>
      </output>
      <weights size="4718592" offset="40160780"/>
      <biases size="1024" offset="44879372"/>
    </layer>
    <layer precision="FP16" id="135" type="ReLU" name="ReLU_stage4_unit3_relu3">
      <input>
        <port id="284">
          <dim>1</dim>
          <dim>512</dim>
          <dim>10</dim>
          <dim>10</dim>
        </port>
      </input>
      <output>
        <port id="283">
          <dim>1</dim>
          <dim>512</dim>
          <dim>10</dim>
          <dim>10</dim>
        </port>
      </output>
    </layer>
    <layer precision="FP16" id="136" type="Convolution" name="Convolution_stage4_unit3_conv3">
      <convolution_data dilation-x="1" kernel-y="1" stride-x="1" output="2048" pad-y="0" stride-y="1" dilation-y="1" pad-x="0" group="1" kernel-x="1"/>
      <input>
        <port id="286">
          <dim>1</dim>
          <dim>512</dim>
          <dim>10</dim>
          <dim>10</dim>
        </port>
      </input>
      <output>
        <port id="285">
          <dim>1</dim>
          <dim>2048</dim>
          <dim>10</dim>
          <dim>10</dim>
        </port>
      </output>
      <weights size="2097152" offset="44880396"/>
    </layer>
    <layer precision="FP16" id="137" type="Eltwise" name="Eltwise__plus15">
      <elementwise_data operation="sum"/>
      <input>
        <port id="288">
          <dim>1</dim>
          <dim>2048</dim>
          <dim>10</dim>
          <dim>10</dim>
        </port>
        <port id="289">
          <dim>1</dim>
          <dim>2048</dim>
          <dim>10</dim>
          <dim>10</dim>
        </port>
      </input>
      <output>
        <port id="287">
          <dim>1</dim>
          <dim>2048</dim>
          <dim>10</dim>
          <dim>10</dim>
        </port>
      </output>
    </layer>
    <layer precision="FP16" id="138" type="ScaleShift" name="ScaleShift_bn1">
      <input>
        <port id="291">
          <dim>1</dim>
          <dim>2048</dim>
          <dim>10</dim>
          <dim>10</dim>
        </port>
      </input>
      <output>
        <port id="290">
          <dim>1</dim>
          <dim>2048</dim>
          <dim>10</dim>
          <dim>10</dim>
        </port>
      </output>
      <weights size="4096" offset="46977548"/>
      <biases size="4096" offset="46981644"/>
    </layer>
    <layer precision="FP16" id="139" type="ReLU" name="ReLU_relu1">
      <input>
        <port id="293">
          <dim>1</dim>
          <dim>2048</dim>
          <dim>10</dim>
          <dim>10</dim>
        </port>
      </input>
      <output>
        <port id="292">
          <dim>1</dim>
          <dim>2048</dim>
          <dim>10</dim>
          <dim>10</dim>
        </port>
      </output>
    </layer>
    <layer precision="FP16" id="140" type="Pooling" name="Pooling_pool1">
      <pooling_data pool-method="avg" kernel-y="10" stride-x="1" pad-y="0" stride-y="1" rounding-type="ceil" kernel-x="10" pad-x="0"/>
      <input>
        <port id="295">
          <dim>1</dim>
          <dim>2048</dim>
          <dim>10</dim>
          <dim>10</dim>
        </port>
      </input>
      <output>
        <port id="294">
          <dim>1</dim>
          <dim>2048</dim>
          <dim>1</dim>
          <dim>1</dim>
        </port>
      </output>
    </layer>
    <layer precision="FP16" id="141" type="Reshape" name="Reshape_flatten0">
      <data num_axes="-1" axis="0" dim="1,2048"/>
      <input>
        <port id="297">
          <dim>1</dim>
          <dim>2048</dim>
          <dim>1</dim>
          <dim>1</dim>
        </port>
      </input>
      <output>
        <port id="296">
          <dim>1</dim>
          <dim>2048</dim>
        </port>
      </output>
    </layer>
    <layer precision="FP16" id="142" type="FullyConnected" name="FullyConnected_fc1">
      <fc_data out-size="1000"/>
      <input>
        <port id="299">
          <dim>1</dim>
          <dim>2048</dim>
        </port>
      </input>
      <output>
        <port id="298">
          <dim>1</dim>
          <dim>1000</dim>
        </port>
      </output>
      <weights size="4096000" offset="46985740"/>
      <biases size="2000" offset="51081740"/>
    </layer>
    <layer precision="FP16" id="143" type="SoftMax" name="SoftMax_softmax">
      <data axis="1"/>
      <input>
        <port id="301">
          <dim>1</dim>
          <dim>1000</dim>
        </port>
      </input>
      <output>
        <port id="300">
          <dim>1</dim>
          <dim>1000</dim>
        </port>
      </output>
    </layer>
  </layers>
  <edges>
    <edge from-layer="1" from-port="1" to-layer="2" to-port="3"/>
    <edge from-layer="2" from-port="2" to-layer="3" to-port="5"/>
    <edge from-layer="3" from-port="4" to-layer="4" to-port="7"/>
    <edge from-layer="4" from-port="6" to-layer="5" to-port="9"/>
    <edge from-layer="5" from-port="8" to-layer="6" to-port="11"/>
    <edge from-layer="6" from-port="10" to-layer="7" to-port="13"/>
    <edge from-layer="7" from-port="12" to-layer="8" to-port="15"/>
    <edge from-layer="8" from-port="14" to-layer="9" to-port="17"/>
    <edge from-layer="9" from-port="16" to-layer="10" to-port="19"/>
    <edge from-layer="10" from-port="18" to-layer="11" to-port="21"/>
    <edge from-layer="11" from-port="20" to-layer="12" to-port="23"/>
    <edge from-layer="7" from-port="12" to-layer="13" to-port="25"/>
    <edge from-layer="12" from-port="22" to-layer="14" to-port="27"/>
    <edge from-layer="13" from-port="24" to-layer="14" to-port="28"/>
    <edge from-layer="14" from-port="26" to-layer="15" to-port="30"/>
    <edge from-layer="15" from-port="29" to-layer="16" to-port="32"/>
    <edge from-layer="16" from-port="31" to-layer="17" to-port="34"/>
    <edge from-layer="17" from-port="33" to-layer="18" to-port="36"/>
    <edge from-layer="18" from-port="35" to-layer="19" to-port="38"/>
    <edge from-layer="19" from-port="37" to-layer="20" to-port="40"/>
    <edge from-layer="20" from-port="39" to-layer="21" to-port="42"/>
    <edge from-layer="21" from-port="41" to-layer="22" to-port="44"/>
    <edge from-layer="14" from-port="26" to-layer="22" to-port="45"/>
    <edge from-layer="22" from-port="43" to-layer="23" to-port="47"/>
    <edge from-layer="23" from-port="46" to-layer="24" to-port="49"/>
    <edge from-layer="24" from-port="48" to-layer="25" to-port="51"/>
    <edge from-layer="25" from-port="50" to-layer="26" to-port="53"/>
    <edge from-layer="26" from-port="52" to-layer="27" to-port="55"/>
    <edge from-layer="27" from-port="54" to-layer="28" to-port="57"/>
    <edge from-layer="28" from-port="56" to-layer="29" to-port="59"/>
    <edge from-layer="29" from-port="58" to-layer="30" to-port="61"/>
    <edge from-layer="22" from-port="43" to-layer="30" to-port="62"/>
    <edge from-layer="30" from-port="60" to-layer="31" to-port="64"/>
    <edge from-layer="31" from-port="63" to-layer="32" to-port="66"/>
    <edge from-layer="32" from-port="65" to-layer="33" to-port="68"/>
    <edge from-layer="33" from-port="67" to-layer="34" to-port="70"/>
    <edge from-layer="34" from-port="69" to-layer="35" to-port="72"/>
    <edge from-layer="35" from-port="71" to-layer="36" to-port="74"/>
    <edge from-layer="36" from-port="73" to-layer="37" to-port="76"/>
    <edge from-layer="32" from-port="65" to-layer="38" to-port="78"/>
    <edge from-layer="37" from-port="75" to-layer="39" to-port="80"/>
    <edge from-layer="38" from-port="77" to-layer="39" to-port="81"/>
    <edge from-layer="39" from-port="79" to-layer="40" to-port="83"/>
    <edge from-layer="40" from-port="82" to-layer="41" to-port="85"/>
    <edge from-layer="41" from-port="84" to-layer="42" to-port="87"/>
    <edge from-layer="42" from-port="86" to-layer="43" to-port="89"/>
    <edge from-layer="43" from-port="88" to-layer="44" to-port="91"/>
    <edge from-layer="44" from-port="90" to-layer="45" to-port="93"/>
    <edge from-layer="45" from-port="92" to-layer="46" to-port="95"/>
    <edge from-layer="46" from-port="94" to-layer="47" to-port="97"/>
    <edge from-layer="39" from-port="79" to-layer="47" to-port="98"/>
    <edge from-layer="47" from-port="96" to-layer="48" to-port="100"/>
    <edge from-layer="48" from-port="99" to-layer="49" to-port="102"/>
    <edge from-layer="49" from-port="101" to-layer="50" to-port="104"/>
    <edge from-layer="50" from-port="103" to-layer="51" to-port="106"/>
    <edge from-layer="51" from-port="105" to-layer="52" to-port="108"/>
    <edge from-layer="52" from-port="107" to-layer="53" to-port="110"/>
    <edge from-layer="53" from-port="109" to-layer="54" to-port="112"/>
    <edge from-layer="54" from-port="111" to-layer="55" to-port="114"/>
    <edge from-layer="47" from-port="96" to-layer="55" to-port="115"/>
    <edge from-layer="55" from-port="113" to-layer="56" to-port="117"/>
    <edge from-layer="56" from-port="116" to-layer="57" to-port="119"/>
    <edge from-layer="57" from-port="118" to-layer="58" to-port="121"/>
    <edge from-layer="58" from-port="120" to-layer="59" to-port="123"/>
    <edge from-layer="59" from-port="122" to-layer="60" to-port="125"/>
    <edge from-layer="60" from-port="124" to-layer="61" to-port="127"/>
    <edge from-layer="61" from-port="126" to-layer="62" to-port="129"/>
    <edge from-layer="62" from-port="128" to-layer="63" to-port="131"/>
    <edge from-layer="55" from-port="113" to-layer="63" to-port="132"/>
    <edge from-layer="63" from-port="130" to-layer="64" to-port="134"/>
    <edge from-layer="64" from-port="133" to-layer="65" to-port="136"/>
    <edge from-layer="65" from-port="135" to-layer="66" to-port="138"/>
    <edge from-layer="66" from-port="137" to-layer="67" to-port="140"/>
    <edge from-layer="67" from-port="139" to-layer="68" to-port="142"/>
    <edge from-layer="68" from-port="141" to-layer="69" to-port="144"/>
    <edge from-layer="69" from-port="143" to-layer="70" to-port="146"/>
    <edge from-layer="65" from-port="135" to-layer="71" to-port="148"/>
    <edge from-layer="70" from-port="145" to-layer="72" to-port="150"/>
    <edge from-layer="71" from-port="147" to-layer="72" to-port="151"/>
    <edge from-layer="72" from-port="149" to-layer="73" to-port="153"/>
    <edge from-layer="73" from-port="152" to-layer="74" to-port="155"/>
    <edge from-layer="74" from-port="154" to-layer="75" to-port="157"/>
    <edge from-layer="75" from-port="156" to-layer="76" to-port="159"/>
    <edge from-layer="76" from-port="158" to-layer="77" to-port="161"/>
    <edge from-layer="77" from-port="160" to-layer="78" to-port="163"/>
    <edge from-layer="78" from-port="162" to-layer="79" to-port="165"/>
    <edge from-layer="79" from-port="164" to-layer="80" to-port="167"/>
    <edge from-layer="72" from-port="149" to-layer="80" to-port="168"/>
    <edge from-layer="80" from-port="166" to-layer="81" to-port="170"/>
    <edge from-layer="81" from-port="169" to-layer="82" to-port="172"/>
    <edge from-layer="82" from-port="171" to-layer="83" to-port="174"/>
    <edge from-layer="83" from-port="173" to-layer="84" to-port="176"/>
    <edge from-layer="84" from-port="175" to-layer="85" to-port="178"/>
    <edge from-layer="85" from-port="177" to-layer="86" to-port="180"/>
    <edge from-layer="86" from-port="179" to-layer="87" to-port="182"/>
    <edge from-layer="87" from-port="181" to-layer="88" to-port="184"/>
    <edge from-layer="80" from-port="166" to-layer="88" to-port="185"/>
    <edge from-layer="88" from-port="183" to-layer="89" to-port="187"/>
    <edge from-layer="89" from-port="186" to-layer="90" to-port="189"/>
    <edge from-layer="90" from-port="188" to-layer="91" to-port="191"/>
    <edge from-layer="91" from-port="190" to-layer="92" to-port="193"/>
    <edge from-layer="92" from-port="192" to-layer="93" to-port="195"/>
    <edge from-layer="93" from-port="194" to-layer="94" to-port="197"/>
    <edge from-layer="94" from-port="196" to-layer="95" to-port="199"/>
    <edge from-layer="95" from-port="198" to-layer="96" to-port="201"/>
    <edge from-layer="88" from-port="183" to-layer="96" to-port="202"/>
    <edge from-layer="96" from-port="200" to-layer="97" to-port="204"/>
    <edge from-layer="97" from-port="203" to-layer="98" to-port="206"/>
    <edge from-layer="98" from-port="205" to-layer="99" to-port="208"/>
    <edge from-layer="99" from-port="207" to-layer="100" to-port="210"/>
    <edge from-layer="100" from-port="209" to-layer="101" to-port="212"/>
    <edge from-layer="101" from-port="211" to-layer="102" to-port="214"/>
    <edge from-layer="102" from-port="213" to-layer="103" to-port="216"/>
    <edge from-layer="103" from-port="215" to-layer="104" to-port="218"/>
    <edge from-layer="96" from-port="200" to-layer="104" to-port="219"/>
    <edge from-layer="104" from-port="217" to-layer="105" to-port="221"/>
    <edge from-layer="105" from-port="220" to-layer="106" to-port="223"/>
    <edge from-layer="106" from-port="222" to-layer="107" to-port="225"/>
    <edge from-layer="107" from-port="224" to-layer="108" to-port="227"/>
    <edge from-layer="108" from-port="226" to-layer="109" to-port="229"/>
    <edge from-layer="109" from-port="228" to-layer="110" to-port="231"/>
    <edge from-layer="110" from-port="230" to-layer="111" to-port="233"/>
    <edge from-layer="111" from-port="232" to-layer="112" to-port="235"/>
    <edge from-layer="104" from-port="217" to-layer="112" to-port="236"/>
    <edge from-layer="112" from-port="234" to-layer="113" to-port="238"/>
    <edge from-layer="113" from-port="237" to-layer="114" to-port="240"/>
    <edge from-layer="114" from-port="239" to-layer="115" to-port="242"/>
    <edge from-layer="115" from-port="241" to-layer="116" to-port="244"/>
    <edge from-layer="116" from-port="243" to-layer="117" to-port="246"/>
    <edge from-layer="117" from-port="245" to-layer="118" to-port="248"/>
    <edge from-layer="118" from-port="247" to-layer="119" to-port="250"/>
    <edge from-layer="114" from-port="239" to-layer="120" to-port="252"/>
    <edge from-layer="119" from-port="249" to-layer="121" to-port="254"/>
    <edge from-layer="120" from-port="251" to-layer="121" to-port="255"/>
    <edge from-layer="121" from-port="253" to-layer="122" to-port="257"/>
    <edge from-layer="122" from-port="256" to-layer="123" to-port="259"/>
    <edge from-layer="123" from-port="258" to-layer="124" to-port="261"/>
    <edge from-layer="124" from-port="260" to-layer="125" to-port="263"/>
    <edge from-layer="125" from-port="262" to-layer="126" to-port="265"/>
    <edge from-layer="126" from-port="264" to-layer="127" to-port="267"/>
    <edge from-layer="127" from-port="266" to-layer="128" to-port="269"/>
    <edge from-layer="128" from-port="268" to-layer="129" to-port="271"/>
    <edge from-layer="121" from-port="253" to-layer="129" to-port="272"/>
    <edge from-layer="129" from-port="270" to-layer="130" to-port="274"/>
    <edge from-layer="130" from-port="273" to-layer="131" to-port="276"/>
    <edge from-layer="131" from-port="275" to-layer="132" to-port="278"/>
    <edge from-layer="132" from-port="277" to-layer="133" to-port="280"/>
    <edge from-layer="133" from-port="279" to-layer="134" to-port="282"/>
    <edge from-layer="134" from-port="281" to-layer="135" to-port="284"/>
    <edge from-layer="135" from-port="283" to-layer="136" to-port="286"/>
    <edge from-layer="136" from-port="285" to-layer="137" to-port="288"/>
    <edge from-layer="129" from-port="270" to-layer="137" to-port="289"/>
    <edge from-layer="137" from-port="287" to-layer="138" to-port="291"/>
    <edge from-layer="138" from-port="290" to-layer="139" to-port="293"/>
    <edge from-layer="139" from-port="292" to-layer="140" to-port="295"/>
    <edge from-layer="140" from-port="294" to-layer="141" to-port="297"/>
    <edge from-layer="141" from-port="296" to-layer="142" to-port="299"/>
    <edge from-layer="142" from-port="298" to-layer="143" to-port="301"/>
  </edges>
  <pre-process reference-layer-name="data">
    <channel id="0">
      <mean value="0"/>
    </channel>
    <channel id="1">
      <mean value="0"/>
    </channel>
    <channel id="2">
      <mean value="0"/>
    </channel>
  </pre-process>
</net>
